…
2020-05-15 11:33:21.175118: I tensorflow/core/platform/profile_utils/cpu_utils.cc:102] CPU Frequency: 2195700000 Hz
2020-05-15 11:33:21.179694: I tensorflow/compiler/xla/service/service.cc:168] XLA service 0x7f9984000b60 initialized for platform Host (this does not guarantee that XLA will be used). Devices:
2020-05-15 11:33:21.179760: I tensorflow/compiler/xla/service/service.cc:176]   StreamExecutor device (0): Host, Default Version
Model: "sequential_1"
_________________________________________________________________
Layer (type)                 Output Shape              Param #   
=================================================================
conv2d_1 (Conv2D)            (None, 100, 100, 8)       224       
_________________________________________________________________
max_pooling2d_1 (MaxPooling2 (None, 50, 50, 8)         0         
_________________________________________________________________
dropout_1 (Dropout)          (None, 50, 50, 8)         0         
_________________________________________________________________
conv2d_2 (Conv2D)            (None, 50, 50, 16)        1168      
_________________________________________________________________
max_pooling2d_2 (MaxPooling2 (None, 25, 25, 16)        0         
_________________________________________________________________
dropout_2 (Dropout)          (None, 25, 25, 16)        0         
_________________________________________________________________
conv2d_3 (Conv2D)            (None, 25, 25, 16)        2320      
_________________________________________________________________
max_pooling2d_3 (MaxPooling2 (None, 12, 12, 16)        0         
_________________________________________________________________
conv2d_4 (Conv2D)            (None, 12, 12, 8)         1160      
_________________________________________________________________
max_pooling2d_4 (MaxPooling2 (None, 6, 6, 8)           0         
_________________________________________________________________
flatten_1 (Flatten)          (None, 288)               0         
_________________________________________________________________
dense_1 (Dense)              (None, 10)                2890      
_________________________________________________________________
dense_2 (Dense)              (None, 2)                 22        
=================================================================
Total params: 7,784
Trainable params: 7,784
Non-trainable params: 0
_________________________________________________________________
None
2020-05-15 11:33:21.827179: I tensorflow/core/profiler/lib/profiler_session.cc:159] Profiler session started.
Train on 7000 samples, validate on 3000 samples
Epoch 1/40
7000/7000 [==============================] - 30s 4ms/step - loss: 0.6838 - accuracy: 0.5601 - val_loss: 0.6663 - val_accuracy: 0.6677
…
