…
2020-05-31 15:00:05.042904: I tensorflow/compiler/xla/service/service.cc:168] XLA service 0x555febd0dd10 initialized for platform CUDA (this does not guarantee that XLA will be used). Devices:
2020-05-31 15:00:05.042970: I tensorflow/compiler/xla/service/service.cc:176]   StreamExecutor device (0): GeForce 920M, Compute Capability 3.5
2020-05-31 15:00:05.044863: I tensorflow/core/common_runtime/process_util.cc:147] Creating new thread pool with default inter op setting: 2. Tune using inter_op_parallelism_threads for best performance.
Model: "sequential_1"
_________________________________________________________________
Layer (type)                 Output Shape              Param #   
=================================================================
conv2d_1 (Conv2D)            (None, 100, 100, 8)       224       
_________________________________________________________________
max_pooling2d_1 (MaxPooling2 (None, 50, 50, 8)         0         
_________________________________________________________________
dropout_1 (Dropout)          (None, 50, 50, 8)         0         
_________________________________________________________________
conv2d_2 (Conv2D)            (None, 50, 50, 16)        1168      
_________________________________________________________________
max_pooling2d_2 (MaxPooling2 (None, 25, 25, 16)        0         
_________________________________________________________________
dropout_2 (Dropout)          (None, 25, 25, 16)        0         
_________________________________________________________________
conv2d_3 (Conv2D)            (None, 25, 25, 16)        2320      
_________________________________________________________________
max_pooling2d_3 (MaxPooling2 (None, 12, 12, 16)        0         
_________________________________________________________________
conv2d_4 (Conv2D)            (None, 12, 12, 8)         1160      
_________________________________________________________________
max_pooling2d_4 (MaxPooling2 (None, 6, 6, 8)           0         
_________________________________________________________________
flatten_1 (Flatten)          (None, 288)               0         
_________________________________________________________________
dense_1 (Dense)              (None, 10)                2890      
_________________________________________________________________
dense_2 (Dense)              (None, 2)                 22        
=================================================================
Total params: 7,784
Trainable params: 7,784
Non-trainable params: 0
_________________________________________________________________
2020-05-31 15:00:05.405663: I tensorflow/core/profiler/lib/profiler_session.cc:159] Profiler session started.
2020-05-31 15:00:05.407309: I tensorflow/core/profiler/internal/gpu/cupti_tracer.cc:1363] Profiler found 1 GPUs
…
