…
Reading Sober Test Samples   : |██████████████████████████████████████████████████| 100.0% Complete
Saving Pickle Files
Saved ./files/x_train.pickle
Saved ./files/y_train.pickle
Saved ./files/x_test.pickle
Saved ./files/y_test.pickle
Using TensorFlow backend.
Reading Files
X_train Length : 3240
Y_train Length : 3240
X_test Length : 880
Y_test Length : 880

Tune using inter_op_parallelism_threads for best performance.
Model: "sequential_1"
_________________________________________________________________
Layer (type)                 Output Shape              Param #   
=================================================================
conv2d_1 (Conv2D)            (None, 100, 100, 8)       224       
_________________________________________________________________
max_pooling2d_1 (MaxPooling2 (None, 50, 50, 8)         0         
_________________________________________________________________
dropout_1 (Dropout)          (None, 50, 50, 8)         0         
_________________________________________________________________
conv2d_2 (Conv2D)            (None, 50, 50, 16)        1168      
_________________________________________________________________
max_pooling2d_2 (MaxPooling2 (None, 25, 25, 16)        0         
_________________________________________________________________
dropout_2 (Dropout)          (None, 25, 25, 16)        0         
_________________________________________________________________
conv2d_3 (Conv2D)            (None, 25, 25, 16)        2320      
_________________________________________________________________
max_pooling2d_3 (MaxPooling2 (None, 12, 12, 16)        0         
_________________________________________________________________
conv2d_4 (Conv2D)            (None, 12, 12, 8)         1160      
_________________________________________________________________
max_pooling2d_4 (MaxPooling2 (None, 6, 6, 8)           0         
_________________________________________________________________
flatten_1 (Flatten)          (None, 288)               0         
_________________________________________________________________
dense_1 (Dense)              (None, 10)                2890      
_________________________________________________________________
dense_2 (Dense)              (None, 2)                 22        
=================================================================
Total params: 7,784
Trainable params: 7,784
Non-trainable params: 0
_________________________________________________________________

Train on 3240 samples, validate on 880 samples
Epoch 1/10
3240/3240 [==============================] - 14s 4ms/step - loss: 0.7000 - accuracy: 0.5247 - val_loss: 0.6879 - val_accuracy: 0.5057
…
